data.pth (torch, 15743 bytes, 6 tensors)

l1.weight f4 [8, 254]
0	0x3d325191	0.04353482
1	0x3dd30f0c	0.10305604
2	0xbe97aabd	-0.2962245
3	0xbf61f57b	-0.882652
4	0x3fc829bf	1.563774
5	0x3fc80f15	1.5629603
6	0x400a571e	2.1615672
7	0xbf23005b	-0.6367242
8	0x402ea84a	2.7290215
9	0x3f940176	1.1562946
10	0x3f3e7de5	0.7441085
11	0x3f636a6c	0.8883426
12	0xbfab4c71	-1.3382703
13	0x3fc86966	1.5657165
14	0xbce8fa19	-0.028439568
15	0x3f3f9ef0	0.74851894
16	0x3e8882e3	0.2666236
17	0x4012e556	2.2952476
18	0x400fc5aa	2.2464395
19	0x3f81ca0a	1.0139782
20	0x4018921b	2.3839176
21	0x3e96e39d	0.2947053
22	0x3f95e481	1.1710359
23	0x404894c6	3.1340804
24	0x40284b86	2.6296096
25	0xbf8e4fe4	-1.1118131
26	0x3f0963f2	0.5366813
27	0x3df5f326	0.120092675
28	0x3ecad22b	0.3961347
29	0x4059ec06	3.4050307
30	0x3fd0c743	1.631081
31	0x3da1d9f6	0.07902901
32	0x3f9567e8	1.1672335
33	0x401110dd	2.2666543
34	0x3fb770f5	1.4331347
35	0x3f58d9af	0.8470716
36	0x3f4d8753	0.80284613
37	0x3f427e76	0.75974214
38	0xc00bf7cb	-2.186999
39	0x405d449a	3.457312
40	0x3edd05b6	0.4316842
41	0x406d9f20	3.7128372
42	0xbf29e1e6	-0.6636032
43	0xbe8a329d	-0.2699174
44	0xbe1cd7f0	-0.15316749
45	0x404e7625	3.225961
46	0x3f5205d6	0.82040155
47	0x3e8fd145	0.28089347
48	0xbe6a06d5	-0.22854169
49	0x400f8d43	2.242997
50	0x3f1ff713	0.6248638
51	0xbf30f00f	-0.691163
52	0xbe93905f	-0.28821084
53	0x3f655ff2	0.89599526
54	0x3fb80ad4	1.4378304
55	0x4079f3ef	3.9055135
56	0x3da4b4b7	0.08042281
57	0x3f0c52f3	0.5481407
58	0xbe95c8a8	-0.2925465
59	0x3fe42152	1.7822669
60	0x3fc6a3e2	1.5518763
61	0x3fd90b8e	1.6956651
62	0x401a6c27	2.412851
63	0x401045ce	2.2542605
64	0x3f124b53	0.57146186
65	0x4013e806	2.3110366
66	0xbfafe197	-1.374072
67	0x3da52ca8	0.08065158
68	0xbe11e7de	-0.14248607
69	0x3e5568c6	0.20840749
70	0xbed3ab43	-0.413416
71	0x40a88183	5.2658095
72	0xbe4200b9	-0.18945588
73	0x3f14292e	0.57875335
74	0x3fbe4eed	1.4867836
75	0x3feba7e8	1.8410616
76	0xbf40e7e0	-0.75353813
77	0x40196549	2.396807
78	0x4044dbed	3.0759232
79	0xbf4b542d	-0.7942532
80	0x3f4479f0	0.7674856
81	0x3f180b09	0.5939184
82	0x402f4944	2.7388468
83	0x404d4202	3.2071538
84	0xbfa2d063	-1.2719845
85	0x3fd55698	1.6667051
86	0xbf8706ff	-1.054901
87	0x3df9039b	0.12158891
88	0x3f4b952f	0.7952451
89	0x3faa9c95	1.3329035
90	0x3e6b3b3f	0.2297182
91	0x3f50c995	0.8155759
92	0xbe96ad44	-0.29429066
93	0x3eb76de7	0.35826036
94	0x4008f08a	2.1396813
95	0xbf41ccca	-0.7570311
96	0x3f30d439	0.69073826
97	0x3f50b25d	0.8152216
98	0x3d8caeec	0.06869301
99	0x3f31c3e9	0.6943956
100	0xbe6dd109	-0.23224272
101	0x3f3237d9	0.69616467
102	0x3f92ecf4	1.1478562
103	0x3ce6895c	0.02814167
104	0x3f6f36c9	0.9344297
105	0xbef72f41	-0.4827824
106	0x3edba256	0.4289729
107	0x3e8703d2	0.26370102
108	0x40096075	2.1465123
109	0x3e081a16	0.13291201
110	0x4007d67c	2.122466
111	0x3f96dde4	1.1786466
112	0x4005f10e	2.0928378
113	0x3f5e69c1	0.8688012
114	0x3fa1f5c3	1.2653126
115	0xbeea59d8	-0.4577167
116	0x3ff71d38	1.9305792
117	0x3ea68d71	0.32529786
118	0xbf4f481d	-0.8096941
119	0xbeecf408	-0.4627993
120	0xbf25a0b0	-0.64698315
121	0xc054d500	-3.3255005
122	0x3fede7f8	1.8586416
123	0x3d2f918c	0.042863414
124	0xbe986c8a	-0.2977031
125	0x3f80ec6c	1.007215
126	0x3fd7d483	1.6861728
127	0x3fda05af	1.7032984
128	0x3da80778	0.082045496
129	0x40238990	2.5552711
130	0x3e183799	0.14864959
131	0x3f5f85dc	0.8731363
132	0x4005b819	2.0893614
133	0x3f064907	0.5245518
134	0x3fa3f41c	1.2808871
135	0xbf763514	-0.9617474
136	0x3e8bf3df	0.27334496
137	0xbeb1159e	-0.34586805
138	0xbeff5189	-0.49866894
139	0x402f41f8	2.7384014
140	0x3fd61acd	1.6726929
141	0xbed6be8b	-0.41942248
142	0xbf473031	-0.7780791
143	0x3ef371b2	0.4754768
144	0xbe23f726	-0.16012248
145	0x404e2587	3.2210405
146	0x3e6600a4	0.22461182
147	0x3d59d322	0.053179868
148	0x40997086	4.794986
149	0x401eb6e9	2.479914
150	0x3ed84030	0.4223647
151	0xbe6c134f	-0.2305424
152	0xbe0cbcdd	-0.1374392
153	0x3f87a315	1.0596644
154	0x3f08a902	0.53382885
155	0xbcefb4c3	-0.029260999
156	0x3f3affdf	0.7304668
157	0x3ec63f2e	0.38720077
158	0xbd0b5821	-0.034019593
159	0x4010b1f6	2.2608619
160	0x3f5c8bd8	0.86150885
161	0xbf0b3dba	-0.5439106
162	0x3f60e079	0.8784252
163	0x3fed6bd9	1.8548537
164	0xbfcd8518	-1.6056242
165	0xbfd055b0	-1.627615
166	0x3e75a62b	0.2398917
167	0xbe608b9c	-0.21928257
168	0x402eb6f1	2.7299159
169	0x3f9ef5b5	1.2418734
170	0x3f81f8af	1.0154017
171	0x3fb19919	1.3874847
172	0x3f04a841	0.51819235
173	0x3fd0d900	1.6316223
174	0xbd777e7b	-0.060423356
175	0x3cc48539	0.023989307
176	0xc02eeb75	-2.7331212
177	0x400b946e	2.1809344
178	0x403652a5	2.8487942
179	0x3f7082af	0.9394941
180	0x3e7b41d1	0.24536826
181	0x3f97cfec	1.1860328
182	0xbf40e6a1	-0.7535191
183	0x3f9d0b76	1.2269123
184	0x3fe2415b	1.7676195
185	0x40239a0f	2.556278
186	0x3f3f3eaa	0.7470499
187	0x3f91dedd	1.1396137
188	0x3ecefb2f	0.40426013
189	0x3fded715	1.7409388
190	0x40642a94	3.5650988
191	0x3fc35386	1.5259864
192	0x401aedc1	2.4207613
193	0xbf82a147	-1.0205468
194	0xbec33a7c	-0.38130558
195	0x3ee13acd	0.43990174
196	0xbfac75f3	-1.3473495
197	0x3e8a9832	0.2706924
198	0x3fb1643a	1.3858712
199	0x3fd24333	1.6426758
200	0xbeb6afc7	-0.35680982
201	0xbf5822be	-0.8442801
202	0x4033ec94	2.8113146
203	0x3f60ffa7	0.87890095
204	0x3f5105fe	0.8164977
205	0x4041013f	3.015701
206	0x3eaa1cbe	0.33225054
207	0x40447b70	3.070034
208	0x3f3e380a	0.7430426
209	0x40783a9d	3.8785775
210	0x3e4c4a24	0.19950157
211	0x3f64569b	0.8919465
212	0x3f675eca	0.9037901
213	0x3f967dd6	1.1757152
214	0x3f4768d8	0.77894354
215	0x4011d6ae	2.278728
216	0xbe918e56	-0.28428906
217	0x4007897b	2.1177661
218	0xbead79ae	-0.33881897
219	0x3dd0cb0a	0.10194977
220	0x3d8bc3a8	0.06824428
221	0x3fbfeab7	1.4993504
222	0xbaacfe24	-0.0013198298
223	0x3fcf581c	1.6198764
224	0x3fdf432c	1.7442374
225	0x3fa67a64	1.3006101
226	0x4028316e	2.628017
227	0x3f333f8e	0.7001885
228	0xbecec324	-0.40383255
229	0xbe61a406	-0.22035226
230	0x3f97b461	1.1851922
231	0x401ad4f0	2.4192467
232	0x3d994ca9	0.07485325
233	0xbf4b04a7	-0.79303974
234	0x3eacc23d	0.33741942
235	0xbf530d95	-0.824426
236	0xbe6aecf0	-0.22941947
237	0x40181fb6	2.3769355
238	0x402976da	2.6478791
239	0x3fc2505d	1.5180775
240	0x40bc7be7	5.890125
241	0x3fdd2c39	1.7279121
242	0x3f61364b	0.8797347
243	0x3f042eab	0.5163371
244	0x40034172	2.0508695
245	0x3fe850a5	1.8149611
246	0x3f6b883c	0.9200475
247	0x3f9cb89d	1.224384
248	0xbeb112f6	-0.3458478
249	0x3fac671a	1.3468964
250	0x3f4fd2ad	0.8118084
251	0xbe8be2ba	-0.27321416
252	0x401b3802	2.4252934
253	0xbe00ddef	-0.12584661
254	0x3fb5e22f	1.4209651
255	0x3f8c058c	1.0939193

l1.bias f4 [8]
0	0x3f956243	1.1670612
1	0x401ac035	2.4179814
2	0x3e7d861f	0.24758194
3	0x3f828611	1.0197164
4	0x3fea906c	1.8325324
5	0x3fbc01cd	1.468805
6	0x3eba3345	0.3636724
7	0x3f1adc7f	0.604927

l2.weight f4 [8, 8]
0	0xbea2e712	-0.31816918
1	0xbe2b7e07	-0.16747294
2	0x3d70c610	0.058782637
3	0xbc069540	-0.008214295
4	0xbdc6fe5c	-0.09716484
5	0x3c8f03a0	0.017457783
6	0x3dd95604	0.10612109
7	0xbe16d5e0	-0.14730024
8	0x3fe9939d	1.8248173
9	0x40bc8517	5.8912463
10	0xc06fd01b	-3.7470767
11	0x3fba7c95	1.456927
12	0x408a7279	4.3264737
13	0x40cf29eb	6.473867
14	0xc059d53b	-3.4036396
15	0xc043065d	-3.0472634
16	0xbe411feb	-0.18859832
17	0x3e68560b	0.22689073
18	0xbdd26f0d	-0.102750875
19	0xbe8d9f1e	-0.2766046
20	0xbe83effc	-0.2576903
21	0xbe874888	-0.26422524
22	0x3e338a5b	0.17533247
23	0xbe910eca	-0.28331596
24	0x3dc6e6c6	0.09711985
25	0xbe980da1	-0.29697898
26	0xbdfd6cf5	-0.123742975
27	0xbe52ee4a	-0.20598713
28	0x3c57f3e0	0.013180703
29	0xbe8dd466	-0.2770111
30	0x3e738e90	0.23784852
31	0xbd91ba70	-0.07115638
32	0x3dc52050	0.09625304
33	0xbe76768a	-0.24068657
34	0xbd08feb0	-0.033446014
35	0xbe99a2f0	-0.30007124
36	0xbd1ebcd8	-0.038754314
37	0xbcbbd4c0	-0.022928596
38	0xbc2d53e0	-0.010579079
39	0xbe9d5016	-0.30725163
40	0xbea0b7e3	-0.31390294
41	0x3e807901	0.2509232
42	0xbdca9fd0	-0.09893763
43	0xbd6e7608	-0.058218032
44	0xbe8e04cc	-0.27738035
45	0xbe03f524	-0.12886482
46	0x3e006842	0.12539771
47	0xbe4d2595	-0.20033868
48	0x404cc41c	3.1994696
49	0x4098f429	4.7798047
50	0x40129ac8	2.290697
51	0xc085d580	-4.182312
52	0xbd874d82	-0.0660658
53	0xbe663f08	-0.22484982
54	0x40b795a5	5.737017
55	0x403ee06e	2.982448
56	0x40aa7c1c	5.32765
57	0xbf6f5779	-0.9349285
58	0x400f94d9	2.24346
59	0x3fd2f820	1.6481972
60	0xc086d1a5	-4.2130914
61	0x407fc811	3.996586
62	0x3febf378	1.8433676
63	0xbfa76bee	-1.3079813

l2.bias f4 [8]
0	0xbd5d8198	-0.05407867
1	0x3f7ce531	0.9878722
2	0xbea03524	-0.31290543
3	0xbe52d715	-0.2058986
4	0xbc8b84e0	-0.017031133
5	0xbeb0f28b	-0.34560046
6	0x3e8b22ae	0.27174896
7	0xbf3b106b	-0.73071927

l3.weight f4 [38, 8]
0	0x3e85d2ab	0.2613729
1	0xbf714581	-0.9424668
2	0x3dd9d354	0.10636011
3	0xbe595934	-0.21225435
4	0x3e05e812	0.13076809
5	0xbe7b2ff6	-0.24530014
6	0xbf9f5ba9	-1.2449847
7	0x3f6e0daa	0.929896
8	0x3e84a8b1	0.2590995
9	0xbf164a9a	-0.5870758
10	0xbe48a8ac	-0.19595593
11	0xbd1eef60	-0.038802505
12	0xbe7c2e32	-0.24626997
13	0x3d930d2c	0.07180247
14	0x3ef8c8e4	0.48590767
15	0xbff2dcce	-1.8973634
16	0xbe3495e1	-0.176353
17	0xc0bc0083	-5.8750625
18	0x3d74c1d8	0.059755176
19	0x3eb36177	0.35035297
20	0xbe383422	-0.17988637
21	0xbea26215	-0.31715456
22	0xbffe6f5a	-1.9877732
23	0x3fb37dd6	1.4022777
24	0xbea1d47b	-0.31607422
25	0xbe897224	-0.26844895
26	0x3e652679	0.22377957
27	0xbdefed54	-0.117151886
28	0xbe61fd11	-0.22069193
29	0xbe9a94f8	-0.3019178
30	0x3ee03b90	0.43795443
31	0xc0f0a78c	-7.5204525
32	0x3e3a155e	0.18172213
33	0xc02c5d77	-2.6932046
34	0xbdd096fc	-0.10185048
35	0x3eaad6ff	0.33367154
36	0xbe953795	-0.29143968
37	0xbe8498b4	-0.25897753
38	0x3f3bc420	0.7334614
39	0xbf0a36fd	-0.53990155
40	0x3b1fb400	0.0024368763
41	0xc0dd43a6	-6.914508
42	0x3e2af666	0.16695556
43	0x3d80b452	0.06284393
44	0x3c21ac40	0.009867728
45	0xbddecc6c	-0.10878834
46	0x3f48bfb8	0.7841754
47	0xbe8f248f	-0.2795758
48	0x3bf05740	0.0073346198
49	0x3f33d337	0.70244163
50	0x3ea3ffe5	0.3203117
51	0xbea392ca	-0.3194793
52	0x3d7dd220	0.06196797
53	0x3e947805	0.28997818
54	0xbfc1446e	-1.5099008
55	0xbf79f305	-0.97636443
56	0x3dbc7420	0.092018366
57	0xbf8af377	-1.085555
58	0x3df05cd0	0.117364526
59	0xbe26bf27	-0.16283856
60	0xbb53d080	-0.003232032
61	0xbea3ec44	-0.32016194
62	0xbe8ddb9d	-0.27706614
63	0x3eeec148	0.46631837
64	0x3d931ebc	0.071835965
65	0x3f927ad4	1.1443734
66	0x3ea1eb7d	0.31624976
67	0xbe72ec2f	-0.2372291
68	0x3eb4e595	0.35331407
69	0x3e35ae32	0.17742231
70	0xc105b416	-8.356466
71	0xc0d70b65	-6.720141
72	0x3eafb44f	0.34317252
73	0xbf282d5a	-0.656942
74	0x3e8cc76b	0.27495894
75	0x3d881774	0.06645098
76	0xbe00a34d	-0.12562294
77	0xbca43e00	-0.020049095
78	0xc0389619	-2.8841612
79	0x3f83d1bc	1.0298381
80	0x3eaaf771	0.33391908
81	0xc09468de	-4.637801
82	0x3e824691	0.25444463
83	0xbe85e25f	-0.2614927
84	0xbea1220e	-0.31471294
85	0x3e9f1951	0.31074002
86	0xbda660ee	-0.081239566
87	0x3f953c79	1.165908
88	0x3e1849b6	0.14871868
89	0x3df9d253	0.12198319
90	0x3e211c82	0.15733531
91	0x3e39ecb2	0.18156698
92	0x3da8cf44	0.08242658
93	0xbe2eaf09	-0.17058958
94	0x3e087830	0.13327098
95	0xc0597900	-3.3980103
96	0x3e86cfd9	0.2633045
97	0x3e9b6b7d	0.30355445
98	0xbd89031c	-0.06690046
99	0x3e29e10a	0.16589752
100	0xbe123b6d	-0.14280482
101	0xbe33193f	-0.174901
102	0x3e06f9f1	0.13181283
103	0xc10c8317	-8.782004
104	0x3eaad4cb	0.33365473
105	0xc1012878	-8.07238
106	0xbe0f1a6b	-0.13974921
107	0x3e8a21b2	0.26978832
108	0xbea2775a	-0.31731683
109	0xbe2200c6	-0.15820608
110	0x3ecd9445	0.40152183
111	0x3f0f2414	0.55914426
112	0xbe32b99c	-0.17453617
113	0xc09db816	-4.9287214
114	0x3dd85fe4	0.10565165
115	0x3ea28b8b	0.31747088
116	0xbe1ea4fd	-0.15492626
117	0x3e946bed	0.2898859
118	0xbf7b2be4	-0.98113847
119	0x3fd3d5c7	1.6549615
120	0x3d508038	0.05090353
121	0xc01496ff	-2.321716
122	0xbe062f29	-0.13103928
123	0x3d2f047c	0.042728886
124	0x3e71f2a6	0.2362772
125	0x3e839abb	0.25703987
126	0xbe26059a	-0.16213074
127	0x3f65a116	0.8969892
128	0x3e47f55a	0.19527188
129	0xbfa5725e	-1.2925527
130	0xbe26897a	-0.1626338
131	0xbe812ef4	-0.25231135
132	0xbe95288a	-0.2913249
133	0xbd7aa368	-0.061190993
134	0x3e74c00b	0.23901384
135	0x3b9546b3	0.004555547
136	0xbe171aa7	-0.14756261
137	0x3e95c927	0.2925503
138	0x3cb0cac0	0.021581054
139	0xbd9d592c	-0.07683024
140	0x3e3d4dc6	0.184867
141	0x3dd0afa4	0.10189751
142	0xbfd7eb46	-1.6868675
143	0xbbef278b	-0.007298415
144	0x3d3599a0	0.04433596
145	0xc0089dd9	-2.1346343
146	0x3e9b0ef5	0.3028485
147	0x3eb31f47	0.349848
148	0xbdc64fd0	-0.09683192
149	0x3d290310	0.041262686
150	0xc060f25d	-3.5147927
151	0x3fdc5d05	1.7215887
152	0x3ddb6ecc	0.10714492
153	0x3f6fe2b9	0.93705326
154	0xbe6943a4	-0.22779709
155	0x3e2a8b46	0.16654691
156	0x3c90d150	0.017677933
157	0x3dec3b6c	0.11534771
158	0xc0d03a01	-6.5070806
159	0xbf977a13	-1.1834129
160	0xbea45160	-0.32093334
161	0x3d055d5d	0.03255974
162	0xbeab7d69	-0.33494118
163	0xbeac11ae	-0.3360724
164	0x3e9e8201	0.3095856
165	0x3ea176bf	0.3153591
166	0xbe6b11bc	-0.22955984
167	0xbf316bf9	-0.6930538
168	0xbdd365bc	-0.10322139
169	0xbefb025b	-0.49025235
170	0xbeb3b950	-0.3510232
171	0x3dec7694	0.115460545
172	0xbeb1d25b	-0.347308
173	0x3e87e07f	0.26538464
174	0xbe0bee87	-0.1366521
175	0xbde59753	-0.112105034
176	0x3e90eba3	0.28304777
177	0xbdd6cf92	-0.1048881
178	0xbd8ed044	-0.06973317
179	0xbd6739c0	-0.05645156
180	0xbe3cdce7	-0.18443643
181	0xbe82ffca	-0.25585777
182	0xbf6b57b6	-0.9193071
183	0x3e56fd88	0.20995152
184	0xbeab257f	-0.33427045
185	0xc09ae8f8	-4.8409386
186	0xbe937088	-0.28796792
187	0x3dd4f370	0.103979945
188	0xbdd2f454	-0.10300508
189	0xbe08bf4f	-0.13354228
190	0x3fbeddda	1.4911454
191	0xc108e9c8	-8.5570755
192	0x3eb2c9dd	0.34919634
193	0x3f85ab72	1.0442946
194	0xbe67f789	-0.22653021
195	0x3dd458d4	0.10368505
196	0xbe622ae8	-0.2208668
197	0x3e8b6ab3	0.27229843
198	0xc0905cfc	-4.5113506
199	0xbfc9eeab	-1.5775961
200	0xbe8756bf	-0.2643337
201	0xbfc46623	-1.534367
202	0x3ea648b6	0.3247735
203	0xbca03ce0	-0.019560277
204	0x3e54e302	0.20789722
205	0xbe65a2ca	-0.2242538
206	0x3f262d43	0.64912814
207	0xbf816906	-1.0110176
208	0x3ea9349b	0.33047947
209	0x3f0c4690	0.5479517
210	0x3e830087	0.2558634
211	0xbe3f7d59	-0.1870016
212	0x3e214d36	0.1575211
213	0xbe78e228	-0.24305022
214	0xbf30616a	-0.6889864
215	0xbfb5cb93	-1.4202751
216	0xbe425455	-0.18977483
217	0xc0cd5cdd	-6.417586
218	0xbc833707	-0.01601745
219	0x3df76e7c	0.1208162
220	0xbe560aa7	-0.20902501
221	0xbeb01a0a	-0.34394866
222	0x3fac6d1a	1.3470795
223	0xc05feaca	-3.4987054
224	0xbe6dede1	-0.23235275
225	0xbf0a11dd	-0.5393351
226	0x3e8aea5f	0.27131936
227	0xbdcebe38	-0.10094875
228	0x3e4140b6	0.18872342
229	0x3e6a93ca	0.2290794
230	0x3e1b34c8	0.15156853
231	0xbf0c3ea4	-0.5478308
232	0xbccec100	-0.025238514
233	0x3ea7ab5b	0.3274792
234	0x3e564b76	0.20927224
235	0xbe6dd01a	-0.23223916
236	0xbd9dbad8	-0.07701653
237	0x3e4a7b4e	0.197736
238	0xbf31b335	-0.69414073
239	0xbf1e618b	-0.6186759
240	0x3e3b8b0a	0.18314758
241	0xbf213dd4	-0.6298497
242	0x3dfa9058	0.12234563
243	0xbea645a7	-0.32475016
244	0xbde60742	-0.11231853
245	0x3db3deb0	0.08782709
246	0xc10178ec	-8.092022
247	0x3f99be44	1.201119
248	0x3dac4c98	0.084130466
249	0xc041024f	-3.015766
250	0xbe4a7f75	-0.19775183
251	0xbe450158	-0.19238794
252	0xbe897fd4	-0.26855338
253	0x3da758b8	0.08171219
254	0x3eb3ff73	0.3515583
255	0x3ed853ee	0.42251533

l3.bias f4 [38]
0	0xbfba4cca	-1.4554684
1	0xbff2b3c6	-1.8961112
2	0x40f1c433	7.5552
3	0x40854461	4.164597
4	0xbfd77db2	-1.6835234
5	0xbfb16735	-1.3859621
6	0xc0bef092	-5.9668665
7	0xc0801985	-4.003115
8	0xc0778143	-3.8672645
9	0xc08c2055	-4.378947
10	0xc0394195	-2.8946278
11	0xc091bc00	-4.554199
12	0xc00972d5	-2.1476338
13	0xbfec0b52	-1.8440955
14	0xc015bd29	-2.3396704
15	0xbf6dc796	-0.9288267
16	0xc0094483	-2.1448066
17	0xbfdb9755	-1.7155558
18	0xc039dc86	-2.9040847
19	0x3ec1d7cc	0.37859952
20	0xc0a8b313	-5.2718596
21	0xc00a966c	-2.165431
22	0xc040add5	-3.0106099
23	0xc09dfa49	-4.9368024
24	0xbfdd3b03	-1.7283634
25	0xc03ae6a7	-2.920328
26	0x402366e3	2.5531547
27	0x400ba414	2.1818895
28	0xc080d8f9	-4.026486
29	0xc0a074fa	-5.0142794
30	0xc07f67ae	-3.990703
31	0xc080cb01	-4.0247808
32	0xc079f749	-3.905718
33	0xc0875264	-4.2288074
34	0xc095fa24	-4.6867847
35	0xc049a7bc	-3.1508627
36	0xc081b7a5	-4.0536675
37	0xc0b88bac	-5.76705
